…
    ENABLED: false
    FLIP: true
    MAX_SIZE: 4000
    MIN_SIZES:
    - 400
    - 500
    - 600
    - 700
    - 800
    - 900
    - 1000
    - 1100
    - 1200
  DETECTIONS_PER_IMAGE: 100
  EVAL_PERIOD: 0
  EXPECTED_RESULTS: []
  KEYPOINT_OKS_SIGMAS: []
  PRECISE_BN:
    ENABLED: false
    NUM_ITER: 200
VERSION: 2
VIS_PERIOD: 0

[06/06 16:13:50 detectron2]: Full config saved to source_model/dca_foggy_baseline/config.yaml
[06/06 16:13:50 d2.utils.env]: Using a generated random seed 53411441
[06/06 16:13:56 d2.engine.defaults]: Model:
GeneralizedRCNN(
  (backbone): CoTNet(
    (stem): BasicStem(
      (conv1): Conv2d(
        3, 64, kernel_size=(7, 7), stride=(2, 2), padding=(3, 3), bias=False
        (norm): FrozenBatchNorm2d(num_features=64, eps=1e-05)
      )
    )
    (res2): Sequential(
      (0): CoTBlock(
        (shortcut): Conv2d(
          64, 256, kernel_size=(1, 1), stride=(1, 1), bias=False
          (norm): FrozenBatchNorm2d(num_features=256, eps=1e-05)
        )
        (conv1): Conv2d(
          64, 64, kernel_size=(1, 1), stride=(1, 1), bias=False
          (norm): FrozenBatchNorm2d(num_features=64, eps=1e-05)
        )
        (conv2): CoTLayer(
          (key_embed): Sequential(
            (0): Conv2d(
              64, 64, kernel_size=(3, 3), stride=(1, 1), padding=(1, 1), groups=4, bias=False
              (norm): FrozenBatchNorm2d(num_features=64, eps=1e-05)
            )
            (1): ReLU(inplace=True)
          )
          (embed): Sequential(
            (0): Conv2d(
              128, 32, kernel_size=(1, 1), stride=(1, 1), bias=False
              (norm): FrozenBatchNorm2d(num_features=32, eps=1e-05)
            )
            (1): ReLU(inplace=True)
            (2): Conv2d(32, 72, kernel_size=(1, 1), stride=(1, 1))
            (3): GroupNorm(8, 72, eps=1e-05, affine=True)
          )
          (conv1x1): Sequential(
            (0): Conv2d(64, 64, kernel_size=(1, 1), stride=(1, 1), bias=False)
            (1): FrozenBatchNorm2d(num_features=64, eps=1e-05)
          )
          (local_conv): LocalConvolution()
          (bn): FrozenBatchNorm2d(num_features=64, eps=1e-05)
          (act): SiLU(inplace=True)
          (se): Sequential(
            (0): Conv2d(
              64, 32, kernel_size=(1, 1), stride=(1, 1)
              (norm): FrozenBatchNorm2d(num_features=32, eps=1e-05)
            )
            (1): ReLU(inplace=True)
            (2): Conv2d(32, 128, kernel_size=(1, 1), stride=(1, 1))
          )
        )
        (conv3): Conv2d(
          64, 256, kernel_size=(1, 1), stride=(1, 1), bias=False
          (norm): FrozenBatchNorm2d(num_features=256, eps=1e-05)
        )
      )
      (1): CoTBlock(
        (conv1): Conv2d(
          256, 64, kernel_size=(1, 1), stride=(1, 1), bias=False
          (norm): FrozenBatchNorm2d(num_features=64, eps=1e-05)
        )
        (conv2): CoTLayer(
          (key_embed): Sequential(
            (0): Conv2d(
              64, 64, kernel_size=(3, 3), stride=(1, 1), padding=(1, 1), groups=4, bias=False
              (norm): FrozenBatchNorm2d(num_features=64, eps=1e-05)
            )
            (1): ReLU(inplace=True)
          )
          (embed): Sequential(
            (0): Conv2d(
              128, 32, kernel_size=(1, 1), stride=(1, 1), bias=False
              (norm): FrozenBatchNorm2d(num_features=32, eps=1e-05)
            )
            (1): ReLU(inplace=True)
            (2): Conv2d(32, 72, kernel_size=(1, 1), stride=(1, 1))
            (3): GroupNorm(8, 72, eps=1e-05, affine=True)
          )
          (conv1x1): Sequential(
            (0): Conv2d(64, 64, kernel_size=(1, 1), stride=(1, 1), bias=False)
            (1): FrozenBatchNorm2d(num_features=64, eps=1e-05)
          )
          (local_conv): LocalConvolution()
          (bn): FrozenBatchNorm2d(num_features=64, eps=1e-05)
          (act): SiLU(inplace=True)
          (se): Sequential(
            (0): Conv2d(
              64, 32, kernel_size=(1, 1), stride=(1, 1)
              (norm): FrozenBatchNorm2d(num_features=32, eps=1e-05)
            )
            (1): ReLU(inplace=True)
            (2): Conv2d(32, 128, kernel_size=(1, 1), stride=(1, 1))
          )
        )
        (conv3): Conv2d(
          64, 256, kernel_size=(1, 1), stride=(1, 1), bias=False
          (norm): FrozenBatchNorm2d(num_features=256, eps=1e-05)
        )
      )
      (2): CoTBlock(
        (conv1): Conv2d(
          256, 64, kernel_size=(1, 1), stride=(1, 1), bias=False
          (norm): FrozenBatchNorm2d(num_features=64, eps=1e-05)
        )
        (conv2): CoTLayer(
          (key_embed): Sequential(
            (0): Conv2d(
              64, 64, kernel_size=(3, 3), stride=(1, 1), padding=(1, 1), groups=4, bias=False
              (norm): FrozenBatchNorm2d(num_features=64, eps=1e-05)
            )
            (1): ReLU(inplace=True)
          )
          (embed): Sequential(
            (0): Conv2d(
              128, 32, kernel_size=(1, 1), stride=(1, 1), bias=False
              (norm): FrozenBatchNorm2d(num_features=32, eps=1e-05)
            )
            (1): ReLU(inplace=True)
            (2): Conv2d(32, 72, kernel_size=(1, 1), stride=(1, 1))
            (3): GroupNorm(8, 72, eps=1e-05, affine=True)
          )
          (conv1x1): Sequential(
            (0): Conv2d(64, 64, kernel_size=(1, 1), stride=(1, 1), bias=False)
            (1): FrozenBatchNorm2d(num_features=64, eps=1e-05)
          )
          (local_conv): LocalConvolution()
          (bn): FrozenBatchNorm2d(num_features=64, eps=1e-05)
          (act): SiLU(inplace=True)
          (se): Sequential(
            (0): Conv2d(
              64, 32, kernel_size=(1, 1), stride=(1, 1)
              (norm): FrozenBatchNorm2d(num_features=32, eps=1e-05)
            )
            (1): ReLU(inplace=True)
            (2): Conv2d(32, 128, kernel_size=(1, 1), stride=(1, 1))
          )
        )
        (conv3): Conv2d(
          64, 256, kernel_size=(1, 1), stride=(1, 1), bias=False
          (norm): FrozenBatchNorm2d(num_features=256, eps=1e-05)
        )
      )
    )
    (res3): Sequential(
      (0): CoTBlock(
        (shortcut): Conv2d(
          256, 512, kernel_size=(1, 1), stride=(2, 2), bias=False
          (norm): FrozenBatchNorm2d(num_features=512, eps=1e-05)
        )
        (conv1): Conv2d(
          256, 128, kernel_size=(1, 1), stride=(2, 2), bias=False
          (norm): FrozenBatchNorm2d(num_features=128, eps=1e-05)
        )
        (conv2): CoTLayer(
          (key_embed): Sequential(
            (0): Conv2d(
              128, 128, kernel_size=(3, 3), stride=(1, 1), padding=(1, 1), groups=4, bias=False
              (norm): FrozenBatchNorm2d(num_features=128, eps=1e-05)
            )
            (1): ReLU(inplace=True)
          )
          (embed): Sequential(
            (0): Conv2d(
              256, 64, kernel_size=(1, 1), stride=(1, 1), bias=False
              (norm): FrozenBatchNorm2d(num_features=64, eps=1e-05)
            )
            (1): ReLU(inplace=True)
            (2): Conv2d(64, 144, kernel_size=(1, 1), stride=(1, 1))
            (3): GroupNorm(16, 144, eps=1e-05, affine=True)
          )
          (conv1x1): Sequential(
            (0): Conv2d(128, 128, kernel_size=(1, 1), stride=(1, 1), bias=False)
            (1): FrozenBatchNorm2d(num_features=128, eps=1e-05)
          )
          (local_conv): LocalConvolution()
          (bn): FrozenBatchNorm2d(num_features=128, eps=1e-05)
          (act): SiLU(inplace=True)
          (se): Sequential(
            (0): Conv2d(
              128, 64, kernel_size=(1, 1), stride=(1, 1)
              (norm): FrozenBatchNorm2d(num_features=64, eps=1e-05)
            )
            (1): ReLU(inplace=True)
            (2): Conv2d(64, 256, kernel_size=(1, 1), stride=(1, 1))
          )
        )
        (conv3): Conv2d(
          128, 512, kernel_size=(1, 1), stride=(1, 1), bias=False
          (norm): FrozenBatchNorm2d(num_features=512, eps=1e-05)
        )
      )
      (1): CoTBlock(
        (conv1): Conv2d(
          512, 128, kernel_size=(1, 1), stride=(1, 1), bias=False
          (norm): FrozenBatchNorm2d(num_features=128, eps=1e-05)
        )
        (conv2): CoTLayer(
          (key_embed): Sequential(
            (0): Conv2d(
              128, 128, kernel_size=(3, 3), stride=(1, 1), padding=(1, 1), groups=4, bias=False
              (norm): FrozenBatchNorm2d(num_features=128, eps=1e-05)
            )
            (1): ReLU(inplace=True)
          )
          (embed): Sequential(
            (0): Conv2d(
              256, 64, kernel_size=(1, 1), stride=(1, 1), bias=False
              (norm): FrozenBatchNorm2d(num_features=64, eps=1e-05)
            )
            (1): ReLU(inplace=True)
            (2): Conv2d(64, 144, kernel_size=(1, 1), stride=(1, 1))
            (3): GroupNorm(16, 144, eps=1e-05, affine=True)
          )
          (conv1x1): Sequential(
            (0): Conv2d(128, 128, kernel_size=(1, 1), stride=(1, 1), bias=False)
            (1): FrozenBatchNorm2d(num_features=128, eps=1e-05)
          )
          (local_conv): LocalConvolution()
          (bn): FrozenBatchNorm2d(num_features=128, eps=1e-05)
          (act): SiLU(inplace=True)
          (se): Sequential(
            (0): Conv2d(
              128, 64, kernel_size=(1, 1), stride=(1, 1)
              (norm): FrozenBatchNorm2d(num_features=64, eps=1e-05)
            )
            (1): ReLU(inplace=True)
            (2): Conv2d(64, 256, kernel_size=(1, 1), stride=(1, 1))
          )
        )
        (conv3): Conv2d(
          128, 512, kernel_size=(1, 1), stride=(1, 1), bias=False
          (norm): FrozenBatchNorm2d(num_features=512, eps=1e-05)
        )
      )
      (2): CoTBlock(
        (conv1): Conv2d(
          512, 128, kernel_size=(1, 1), stride=(1, 1), bias=False
          (norm): FrozenBatchNorm2d(num_features=128, eps=1e-05)
        )
        (conv2): CoTLayer(
          (key_embed): Sequential(
            (0): Conv2d(
              128, 128, kernel_size=(3, 3), stride=(1, 1), padding=(1, 1), groups=4, bias=False
              (norm): FrozenBatchNorm2d(num_features=128, eps=1e-05)
            )
            (1): ReLU(inplace=True)
          )
          (embed): Sequential(
            (0): Conv2d(
              256, 64, kernel_size=(1, 1), stride=(1, 1), bias=False
              (norm): FrozenBatchNorm2d(num_features=64, eps=1e-05)
            )
            (1): ReLU(inplace=True)
            (2): Conv2d(64, 144, kernel_size=(1, 1), stride=(1, 1))
            (3): GroupNorm(16, 144, eps=1e-05, affine=True)
          )
          (conv1x1): Sequential(
            (0): Conv2d(128, 128, kernel_size=(1, 1), stride=(1, 1), bias=False)
            (1): FrozenBatchNorm2d(num_features=128, eps=1e-05)
          )
          (local_conv): LocalConvolution()
          (bn): FrozenBatchNorm2d(num_features=128, eps=1e-05)
          (act): SiLU(inplace=True)
          (se): Sequential(
            (0): Conv2d(
              128, 64, kernel_size=(1, 1), stride=(1, 1)
              (norm): FrozenBatchNorm2d(num_features=64, eps=1e-05)
            )
            (1): ReLU(inplace=True)
            (2): Conv2d(64, 256, kernel_size=(1, 1), stride=(1, 1))
          )
        )
        (conv3): Conv2d(
          128, 512, kernel_size=(1, 1), stride=(1, 1), bias=False
          (norm): FrozenBatchNorm2d(num_features=512, eps=1e-05)
        )
      )
      (3): CoTBlock(
        (conv1): Conv2d(
          512, 128, kernel_size=(1, 1), stride=(1, 1), bias=False
          (norm): FrozenBatchNorm2d(num_features=128, eps=1e-05)
        )
        (conv2): CoTLayer(
          (key_embed): Sequential(
            (0): Conv2d(
              128, 128, kernel_size=(3, 3), stride=(1, 1), padding=(1, 1), groups=4, bias=False
              (norm): FrozenBatchNorm2d(num_features=128, eps=1e-05)
            )
            (1): ReLU(inplace=True)
          )
          (embed): Sequential(
            (0): Conv2d(
              256, 64, kernel_size=(1, 1), stride=(1, 1), bias=False
              (norm): FrozenBatchNorm2d(num_features=64, eps=1e-05)
            )
            (1): ReLU(inplace=True)
            (2): Conv2d(64, 144, kernel_size=(1, 1), stride=(1, 1))
            (3): GroupNorm(16, 144, eps=1e-05, affine=True)
          )
          (conv1x1): Sequential(
            (0): Conv2d(128, 128, kernel_size=(1, 1), stride=(1, 1), bias=False)
            (1): FrozenBatchNorm2d(num_features=128, eps=1e-05)
          )
          (local_conv): LocalConvolution()
          (bn): FrozenBatchNorm2d(num_features=128, eps=1e-05)
          (act): SiLU(inplace=True)
          (se): Sequential(
            (0): Conv2d(
              128, 64, kernel_size=(1, 1), stride=(1, 1)
              (norm): FrozenBatchNorm2d(num_features=64, eps=1e-05)
            )
            (1): ReLU(inplace=True)
            (2): Conv2d(64, 256, kernel_size=(1, 1), stride=(1, 1))
          )
        )
        (conv3): Conv2d(
          128, 512, kernel_size=(1, 1), stride=(1, 1), bias=False
          (norm): FrozenBatchNorm2d(num_features=512, eps=1e-05)
        )
      )
    )
    (res4): Sequential(
      (0): CoTBlock(
        (shortcut): Conv2d(
          512, 1024, kernel_size=(1, 1), stride=(2, 2), bias=False
          (norm): FrozenBatchNorm2d(num_features=1024, eps=1e-05)
        )
        (conv1): Conv2d(
          512, 256, kernel_size=(1, 1), stride=(2, 2), bias=False
          (norm): FrozenBatchNorm2d(num_features=256, eps=1e-05)
        )
        (conv2): CoTLayer(
          (key_embed): Sequential(
            (0): Conv2d(
              256, 256, kernel_size=(3, 3), stride=(1, 1), padding=(1, 1), groups=4, bias=False
              (norm): FrozenBatchNorm2d(num_features=256, eps=1e-05)
            )
            (1): ReLU(inplace=True)
          )
          (embed): Sequential(
            (0): Conv2d(
              512, 128, kernel_size=(1, 1), stride=(1, 1), bias=False
              (norm): FrozenBatchNorm2d(num_features=128, eps=1e-05)
            )
            (1): ReLU(inplace=True)
            (2): Conv2d(128, 288, kernel_size=(1, 1), stride=(1, 1))
            (3): GroupNorm(32, 288, eps=1e-05, affine=True)
          )
          (conv1x1): Sequential(
            (0): Conv2d(256, 256, kernel_size=(1, 1), stride=(1, 1), bias=False)
            (1): FrozenBatchNorm2d(num_features=256, eps=1e-05)
          )
          (local_conv): LocalConvolution()
          (bn): FrozenBatchNorm2d(num_features=256, eps=1e-05)
          (act): SiLU(inplace=True)
          (se): Sequential(
            (0): Conv2d(
              256, 128, kernel_size=(1, 1), stride=(1, 1)
              (norm): FrozenBatchNorm2d(num_features=128, eps=1e-05)
            )
            (1): ReLU(inplace=True)
            (2): Conv2d(128, 512, kernel_size=(1, 1), stride=(1, 1))
          )
        )
        (conv3): Conv2d(
          256, 1024, kernel_size=(1, 1), stride=(1, 1), bias=False
          (norm): FrozenBatchNorm2d(num_features=1024, eps=1e-05)
        )
      )
      (1): CoTBlock(
        (conv1): Conv2d(
          1024, 256, kernel_size=(1, 1), stride=(1, 1), bias=False
          (norm): FrozenBatchNorm2d(num_features=256, eps=1e-05)
        )
        (conv2): CoTLayer(
          (key_embed): Sequential(
            (0): Conv2d(
              256, 256, kernel_size=(3, 3), stride=(1, 1), padding=(1, 1), groups=4, bias=False
              (norm): FrozenBatchNorm2d(num_features=256, eps=1e-05)
            )
            (1): ReLU(inplace=True)
          )
          (embed): Sequential(
            (0): Conv2d(
              512, 128, kernel_size=(1, 1), stride=(1, 1), bias=False
              (norm): FrozenBatchNorm2d(num_features=128, eps=1e-05)
            )
            (1): ReLU(inplace=True)
            (2): Conv2d(128, 288, kernel_size=(1, 1), stride=(1, 1))
            (3): GroupNorm(32, 288, eps=1e-05, affine=True)
          )
          (conv1x1): Sequential(
            (0): Conv2d(256, 256, kernel_size=(1, 1), stride=(1, 1), bias=False)
            (1): FrozenBatchNorm2d(num_features=256, eps=1e-05)
          )
          (local_conv): LocalConvolution()
          (bn): FrozenBatchNorm2d(num_features=256, eps=1e-05)
          (act): SiLU(inplace=True)
          (se): Sequential(
            (0): Conv2d(
              256, 128, kernel_size=(1, 1), stride=(1, 1)
              (norm): FrozenBatchNorm2d(num_features=128, eps=1e-05)
            )
            (1): ReLU(inplace=True)
            (2): Conv2d(128, 512, kernel_size=(1, 1), stride=(1, 1))
          )
        )
        (conv3): Conv2d(
          256, 1024, kernel_size=(1, 1), stride=(1, 1), bias=False
          (norm): FrozenBatchNorm2d(num_features=1024, eps=1e-05)
        )
      )
      (2): CoTBlock(
        (conv1): Conv2d(
          1024, 256, kernel_size=(1, 1), stride=(1, 1), bias=False
          (norm): FrozenBatchNorm2d(num_features=256, eps=1e-05)
        )
        (conv2): CoTLayer(
          (key_embed): Sequential(
            (0): Conv2d(
              256, 256, kernel_size=(3, 3), stride=(1, 1), padding=(1, 1), groups=4, bias=False
              (norm): FrozenBatchNorm2d(num_features=256, eps=1e-05)
            )
            (1): ReLU(inplace=True)
          )
          (embed): Sequential(
            (0): Conv2d(
              512, 128, kernel_size=(1, 1), stride=(1, 1), bias=False
              (norm): FrozenBatchNorm2d(num_features=128, eps=1e-05)
            )
            (1): ReLU(inplace=True)
            (2): Conv2d(128, 288, kernel_size=(1, 1), stride=(1, 1))
            (3): GroupNorm(32, 288, eps=1e-05, affine=True)
          )
          (conv1x1): Sequential(
            (0): Conv2d(256, 256, kernel_size=(1, 1), stride=(1, 1), bias=False)
            (1): FrozenBatchNorm2d(num_features=256, eps=1e-05)
          )
          (local_conv): LocalConvolution()
          (bn): FrozenBatchNorm2d(num_features=256, eps=1e-05)
          (act): SiLU(inplace=True)
          (se): Sequential(
            (0): Conv2d(
              256, 128, kernel_size=(1, 1), stride=(1, 1)
              (norm): FrozenBatchNorm2d(num_features=128, eps=1e-05)
            )
            (1): ReLU(inplace=True)
            (2): Conv2d(128, 512, kernel_size=(1, 1), stride=(1, 1))
          )
        )
        (conv3): Conv2d(
          256, 1024, kernel_size=(1, 1), stride=(1, 1), bias=False
          (norm): FrozenBatchNorm2d(num_features=1024, eps=1e-05)
        )
      )
      (3): CoTBlock(
        (conv1): Conv2d(
          1024, 256, kernel_size=(1, 1), stride=(1, 1), bias=False
          (norm): FrozenBatchNorm2d(num_features=256, eps=1e-05)
        )
        (conv2): CoTLayer(
          (key_embed): Sequential(
            (0): Conv2d(
              256, 256, kernel_size=(3, 3), stride=(1, 1), padding=(1, 1), groups=4, bias=False
              (norm): FrozenBatchNorm2d(num_features=256, eps=1e-05)
            )
            (1): ReLU(inplace=True)
          )
          (embed): Sequential(
            (0): Conv2d(
              512, 128, kernel_size=(1, 1), stride=(1, 1), bias=False
              (norm): FrozenBatchNorm2d(num_features=128, eps=1e-05)
            )
            (1): ReLU(inplace=True)
            (2): Conv2d(128, 288, kernel_size=(1, 1), stride=(1, 1))
            (3): GroupNorm(32, 288, eps=1e-05, affine=True)
          )
          (conv1x1): Sequential(
            (0): Conv2d(256, 256, kernel_size=(1, 1), stride=(1, 1), bias=False)
            (1): FrozenBatchNorm2d(num_features=256, eps=1e-05)
          )
          (local_conv): LocalConvolution()
          (bn): FrozenBatchNorm2d(num_features=256, eps=1e-05)
          (act): SiLU(inplace=True)
          (se): Sequential(
            (0): Conv2d(
              256, 128, kernel_size=(1, 1), stride=(1, 1)
              (norm): FrozenBatchNorm2d(num_features=128, eps=1e-05)
            )
            (1): ReLU(inplace=True)
            (2): Conv2d(128, 512, kernel_size=(1, 1), stride=(1, 1))
          )
        )
        (conv3): Conv2d(
          256, 1024, kernel_size=(1, 1), stride=(1, 1), bias=False
          (norm): FrozenBatchNorm2d(num_features=1024, eps=1e-05)
        )
      )
      (4): CoTBlock(
        (conv1): Conv2d(
          1024, 256, kernel_size=(1, 1), stride=(1, 1), bias=False
          (norm): FrozenBatchNorm2d(num_features=256, eps=1e-05)
        )
        (conv2): CoTLayer(
          (key_embed): Sequential(
            (0): Conv2d(
              256, 256, kernel_size=(3, 3), stride=(1, 1), padding=(1, 1), groups=4, bias=False
              (norm): FrozenBatchNorm2d(num_features=256, eps=1e-05)
            )
            (1): ReLU(inplace=True)
          )
          (embed): Sequential(
            (0): Conv2d(
              512, 128, kernel_size=(1, 1), stride=(1, 1), bias=False
              (norm): FrozenBatchNorm2d(num_features=128, eps=1e-05)
            )
            (1): ReLU(inplace=True)
            (2): Conv2d(128, 288, kernel_size=(1, 1), stride=(1, 1))
            (3): GroupNorm(32, 288, eps=1e-05, affine=True)
          )
          (conv1x1): Sequential(
            (0): Conv2d(256, 256, kernel_size=(1, 1), stride=(1, 1), bias=False)
            (1): FrozenBatchNorm2d(num_features=256, eps=1e-05)
          )
          (local_conv): LocalConvolution()
          (bn): FrozenBatchNorm2d(num_features=256, eps=1e-05)
          (act): SiLU(inplace=True)
          (se): Sequential(
            (0): Conv2d(
              256, 128, kernel_size=(1, 1), stride=(1, 1)
              (norm): FrozenBatchNorm2d(num_features=128, eps=1e-05)
            )
            (1): ReLU(inplace=True)
            (2): Conv2d(128, 512, kernel_size=(1, 1), stride=(1, 1))
          )
        )
        (conv3): Conv2d(
          256, 1024, kernel_size=(1, 1), stride=(1, 1), bias=False
          (norm): FrozenBatchNorm2d(num_features=1024, eps=1e-05)
        )
      )
      (5): CoTBlock(
        (conv1): Conv2d(
          1024, 256, kernel_size=(1, 1), stride=(1, 1), bias=False
          (norm): FrozenBatchNorm2d(num_features=256, eps=1e-05)
        )
        (conv2): CoTLayer(
          (key_embed): Sequential(
            (0): Conv2d(
              256, 256, kernel_size=(3, 3), stride=(1, 1), padding=(1, 1), groups=4, bias=False
              (norm): FrozenBatchNorm2d(num_features=256, eps=1e-05)
            )
            (1): ReLU(inplace=True)
          )
          (embed): Sequential(
            (0): Conv2d(
              512, 128, kernel_size=(1, 1), stride=(1, 1), bias=False
              (norm): FrozenBatchNorm2d(num_features=128, eps=1e-05)
            )
            (1): ReLU(inplace=True)
            (2): Conv2d(128, 288, kernel_size=(1, 1), stride=(1, 1))
            (3): GroupNorm(32, 288, eps=1e-05, affine=True)
          )
          (conv1x1): Sequential(
            (0): Conv2d(256, 256, kernel_size=(1, 1), stride=(1, 1), bias=False)
            (1): FrozenBatchNorm2d(num_features=256, eps=1e-05)
          )
          (local_conv): LocalConvolution()
          (bn): FrozenBatchNorm2d(num_features=256, eps=1e-05)
          (act): SiLU(inplace=True)
          (se): Sequential(
            (0): Conv2d(
              256, 128, kernel_size=(1, 1), stride=(1, 1)
              (norm): FrozenBatchNorm2d(num_features=128, eps=1e-05)
            )
            (1): ReLU(inplace=True)
            (2): Conv2d(128, 512, kernel_size=(1, 1), stride=(1, 1))
          )
        )
        (conv3): Conv2d(
          256, 1024, kernel_size=(1, 1), stride=(1, 1), bias=False
          (norm): FrozenBatchNorm2d(num_features=1024, eps=1e-05)
        )
      )
    )
  )
  (proposal_generator): RPN(
    (rpn_head): StandardRPNHead(
      (conv): Conv2d(
        1024, 1024, kernel_size=(3, 3), stride=(1, 1), padding=(1, 1)
        (activation): ReLU()
      )
      (objectness_logits): Conv2d(1024, 9, kernel_size=(1, 1), stride=(1, 1))
      (anchor_deltas): Conv2d(1024, 36, kernel_size=(1, 1), stride=(1, 1))
    )
    (anchor_generator): DefaultAnchorGenerator(
      (cell_anchors): BufferList()
    )
  )
  (roi_heads): Res5ROIHeads(
    (pooler): ROIPooler(
      (level_poolers): ModuleList(
        (0): ROIAlign(output_size=(14, 14), spatial_scale=0.0625, sampling_ratio=0, aligned=True)
      )
    )
    (res5): Sequential(
      (0): BottleneckBlock(
        (shortcut): Conv2d(
          1024, 2048, kernel_size=(1, 1), stride=(2, 2), bias=False
          (norm): FrozenBatchNorm2d(num_features=2048, eps=1e-05)
        )
        (conv1): Conv2d(
          1024, 512, kernel_size=(1, 1), stride=(2, 2), bias=False
          (norm): FrozenBatchNorm2d(num_features=512, eps=1e-05)
        )
        (conv2): Conv2d(
          512, 512, kernel_size=(3, 3), stride=(1, 1), padding=(1, 1), bias=False
          (norm): FrozenBatchNorm2d(num_features=512, eps=1e-05)
        )
        (conv3): Conv2d(
          512, 2048, kernel_size=(1, 1), stride=(1, 1), bias=False
          (norm): FrozenBatchNorm2d(num_features=2048, eps=1e-05)
        )
      )
      (1): BottleneckBlock(
        (conv1): Conv2d(
          2048, 512, kernel_size=(1, 1), stride=(1, 1), bias=False
          (norm): FrozenBatchNorm2d(num_features=512, eps=1e-05)
        )
        (conv2): Conv2d(
          512, 512, kernel_size=(3, 3), stride=(1, 1), padding=(1, 1), bias=False
          (norm): FrozenBatchNorm2d(num_features=512, eps=1e-05)
        )
        (conv3): Conv2d(
          512, 2048, kernel_size=(1, 1), stride=(1, 1), bias=False
          (norm): FrozenBatchNorm2d(num_features=2048, eps=1e-05)
        )
      )
      (2): BottleneckBlock(
        (conv1): Conv2d(
          2048, 512, kernel_size=(1, 1), stride=(1, 1), bias=False
          (norm): FrozenBatchNorm2d(num_features=512, eps=1e-05)
        )
        (conv2): Conv2d(
          512, 512, kernel_size=(3, 3), stride=(1, 1), padding=(1, 1), bias=False
          (norm): FrozenBatchNorm2d(num_features=512, eps=1e-05)
        )
        (conv3): Conv2d(
          512, 2048, kernel_size=(1, 1), stride=(1, 1), bias=False
          (norm): FrozenBatchNorm2d(num_features=2048, eps=1e-05)
        )
      )
    )
    (box_predictor): FastRCNNOutputLayers(
      (cls_score): Linear(in_features=2048, out_features=41, bias=True)
      (bbox_pred): Linear(in_features=2048, out_features=160, bias=True)
    )
  )
)
[06/06 16:13:56 fvcore.common.checkpoint]: [Checkpointer] Loading from source_model/dca_foggy_baseline/model_0009999.pth ...
WARNING [06/06 16:13:59 fvcore.common.checkpoint]: Some model parameters or buffers are not found in the checkpoint:
backbone.res2.0.conv2.key_embed.0.norm.{bias, weight}
backbone.res2.1.conv2.key_embed.0.norm.{bias, weight}
…
